Machine Learning - Centing/model.tflite (tflite, 11984 bytes, 6 tensors)

sequential_1/dense_5/BiasAdd/ReadVariableOp f4 [4]
0.31184468 0.0019709528 0.06338695 -0.5384078
00000000: 1baa 9f3e 1a2b 013b 04d1 813d 18d5 09bf

sequential_1/dense_4/BiasAdd/ReadVariableOp f4 [32]
-0.17224233 -0.03208322 0.6498456 0.6167096 0.23168312 -0.011786962 -0.035390697 -0.03408627
0.6070057 -0.021226188 -0.44175822 0.3124947 0.01691497 -0.12651005 0.30374503 0.17697558
0.5093371 -0.11097401 0.2979898 0.6511783 0.06823476 -0.14902852 -0.040315773 0.58505535
-0.089302324 -0.22937399 0.2804138 0.4882303 -0.0008459828 -0.3245731 0.2616453 -0.44961864
00000000: 4b60 30be b269 03bd 485c 263f aee0 1d3f
00000010: 573e 6d3e 1a1e 41bc d6f5 10bd 0b9e 0bbd
00000020: ba64 1b3f 8be2 adbc 222e e2be 4eff 9f3e
00000030: 4391 8a3c da8b 01be 7884 9b3e 1639 353e
00000040: eb63 023f 5746 e3bd 1e92 983e 9fb3 263f
00000050: aabe 8b3d ef9a 18be 2722 25bd 30c6 153f
00000060: 23e4 b6bd 04e1 6abe 6692 8f3e 52f9 f93e
00000070: f2c4 5dba 722e a6be 5ff6 853e 6a34 e6be

sequential_1/dense_3/BiasAdd/ReadVariableOp f4 [64]
-0.7991456 0.6390024 0.70238686 0.59312475 -0.8538729 -0.61134815 0.5623869 -0.13698171
0.24810718 0.52439153 -0.7979466 0.4533342 0.5147253 0.30733383 -0.075411506 0.0558066
-0.13534494 0.05263761 0.10200092 -0.5387229 -0.22673327 0.5929251 0.60339034 0.5383097
0.5416272 0.6417472 0.42814574 0.36051154 0.5350745 0.29880464 -0.9268313 0.66437835
0.14234866 0.27104464 -0.018325672 0.588792 0.6620417 0.7343466 0.5484455 0.65147907
-0.0008205269 0.47121218 0.6237559 -0.056813274 -0.58458567 0.11064842 -0.29628336 0.6714971
0.4507734 0.5052566 -0.13295375 -0.07436232 0.5742292 -0.42518827 0.2562295 0.6951973
0.17173725 0.47755533 0.4340256 0.19281776 0.6684191 0.4625907 0.30967644 -0.18370277
00000000: ce94 4cbf a995 233f a0cf 333f 06d7 173f
00000010: 6a97 5abf 5081 1cbf 96f8 0f3f ef44 0cbe
00000020: cf0f 7e3e 863e 063f 3a46 4cbf 6c1b e83e
00000030: 0ac5 033f dc5a 9d3e 5971 9abd 7695 643d
00000040: dd97 0abe 899a 573d dce5 d03d bee9 09bf
00000050: c42c 68be f0c9 173f ca77 1a3f aace 093f
00000060: 15a8 0a3f 8b49 243f eb35 db3e f894 b83e
00000070: a4fa 083f ecfc 983e d144 6dbf b314 2a3f
00000080: d9c3 113e 5dc6 8a3e b81f 96bc 13bb 163f
00000090: 917b 293f 24fe 3b3f ed66 0c3f 55c7 263f
000000a0: a118 57ba b942 f13e 77ae 1f3f 09b5 68bd
000000b0: 68a7 15bf a49b e23d 74b2 97be 3ce7 2b3f
000000c0: c5cb e63e 7f58 013f 0725 08be 464b 98bd
000000d0: af00 133f 47b2 d9be 8330 833e 73f8 313f
000000e0: e4db 2f3e 2282 f43e 9a38 de3e 0572 453e
000000f0: 841d 2b3f b0d8 ec3e e98d 9e3e 941c 3cbe

sequential_1/dense_3/MatMul f4 [64, 3]
-0.32134646 -0.1883583 -0.4662408 0.5293652 0.14907382 -0.3645128 -0.46697047 0.14878719
0.9848357 -0.17885928 -0.04479134 0.46838868 -0.37097406 0.16154842 -0.3792082 -0.66783273
0.056697924 -0.17068766 0.5881082 0.21046485 -0.45966396 -0.72713095 0.065436244 0.41393554
0.36691925 -0.15747386 -0.45095152 -0.26166672 0.046350412 0.4618117 -0.6009403 0.13853951
-0.45254013 -0.3938026 0.19568627 0.78864044 -0.4785464 0.21993579 0.7133187 0.16476974
0.23118545 0.10929836 -0.57127553 0.37647408 0.40425685 -0.33223477 0.12882517 0.3162464
-0.45527133 0.26746494 0.20052637 -0.53134423 -0.2913297 0.03365471 -0.5776188 0.088872276
0.25824144 -0.6919957 0.09799481 -0.20790686 -0.755286 0.0684955 0.3026927 0.10648377
-0.7848203 -0.078583606 -0.2582961 0.1150348 0.8372322 0.01863683 0.074416324 0.78372186
0.3352083 0.24152192 -0.37181294 0.43195012 0.0508782 -0.30358946 0.40175182 0.23076634
-0.38794455 -0.07225456 0.2265195 0.7819147 -0.49291384 0.15062234 0.75074816 0.38280773
0.024047831 -0.35359213 -0.37968937 -0.023632903 -0.3864025 0.50317484 0.18684058 -0.37543687
-0.34410363 0.06301083 0.33190215 0.05647159 -0.4305986 -0.02161807 0.42820665 -0.07359503
-0.5376463 0.24644952 0.3051623 -0.2527466 0.35081863 0.30709192 -0.112270035 0.08253357
-0.856651 -0.079412125 -0.52786446 0.1131589 0.83096755 -0.029014273 -0.8455407 -0.035486523
-0.43900204 -0.28568324 0.24819653 -0.4556914 0.12272286 0.7071703 -0.24198306 0.23209693
1.0090941 -0.45735136 0.2896942 0.30465755 0.5954754 -0.14032845 0.4211992 0.5202663
-0.080195695 -0.5441755 -0.46748096 -0.3478143 -0.44966045 0.30333525 0.18413371 -0.33277056
-0.12700778 -1.2030066 0.43596128 0.36546892 0.039771035 -0.3137233 -0.15113471 -0.11688177
0.14058693 0.41916004 -0.10422458 1.0190349 0.55900794 0.05153454 -0.43766695 -0.80615157
0.046077233 -0.00782925 0.24581489 0.13119383 -0.107747994 0.544532 0.2894556 -0.3540902
-0.37276825 0.13862102 0.4184578 -0.06917965 -0.09891402 0.7590375 0.21727856 -0.2419985
-0.14825755 -0.4147758 0.15057617 0.45346642 -0.139401 -0.028306898 0.79747796 0.3392245
0.16196412 -0.27723536 0.387854 0.17380108 -0.29722005 -0.5397507 0.03202201 0.67812234
00000000: 8687 a4be 00e1 40be 1db7 eebe 7a84 073f
00000010: cfa6 183e 6ca1 babe c116 efbe ab5b 183e
00000020: 311e 7c3f e326 37be 2077 37bd a4d0 ef3e
00000030: 50f0 bdbe f36c 253e 9427 c2be 16f7 2abf
00000040: 153c 683d bfc8 2ebe 428e 163f 1984 573e
00000050: 1359 ebbe 4125 3abf 7003 863d 5cef d33e
00000060: d7dc bb3e d440 21be 1ee3 e6be 2ef9 85be
00000070: eed9 3d3d 9572 ec3e 39d7 19bf 4ddd 0d3e
00000080: 57b3 e7be 7fa0 c9be fb61 483e 57e4 493f
00000090: 0904 f5be d936 613e 0e9c 363f 66b9 283e
000000a0: e1bb 6c3e d2d7 df3d 1d3f 12bf 36c1 c03e
000000b0: c1fa ce3e ad1a aabe bfea 033e 0ceb a13e
000000c0: 5319 e9be 2af1 883e c956 4d3e 2d06 08bf
000000d0: 2b29 95be 85d9 093d d3de 13bf ab02 b63d
000000e0: 3938 843e a126 31bf 81b1 c83d 89e5 54be
000000f0: 6c5a 41bf 5e47 8c3d 8afa 9a3e 2a14 da3d
00000100: fce9 48bf 71f0 a0bd 633f 84be 5d97 eb3d
00000110: d954 563f 44ac 983c 9667 983d ffa1 483f
00000120: 6ca0 ab3e 8651 773e 445e bebe 9128 dd3e
00000130: a965 503d 1470 9bbe 6ab2 cd3e 034e 6c3e
00000140: aba0 c6be 33fa 93bd baf4 673e 902b 483f
00000150: 345f fcbe be3c 1a3e 0831 403f 60ff c33e
00000160: f5ff c43c 070a b5be a566 c2be ca99 c1bc
00000170: 8cd6 c5be 11d0 003f 2353 3f3e 4339 c0be
00000180: 5a2e b0be d20b 813d 14ef a93e c14e 673d
00000190: 6b77 dcbe 6118 b1bc e73d db3e feb8 96bd
000001a0: 30a3 09bf 435d 7c3e 3c3e 9c3e 0168 81be
000001b0: 809e b33e 273b 9d3e d5ed e5bd 5c07 a93d
000001c0: 7b4d 5bbf d3a2 a2bd 2022 07bf dabf e73d
000001d0: 4aba 543f 57af edbc 5b75 58bf 515a 11bd
000001e0: e0c4 e0be 1345 92be 3b27 7e3e 6250 e9be
000001f0: 1f56 fb3d 1d09 353f 68ca 77be d1aa 6d3e
00000200: ff29 813f f529 eabe cc52 943e 13fc 9b3e
00000210: 1371 183f 43b2 0fbe 6ca7 d73e 2c30 053f
00000220: a43d a4bd 164f 0bbf aa59 efbe b714 b2be
00000230: e539 e6be c24e 9b3e 8c8d 3c3e e760 aabe
00000240: 540e 02be 1ffc 99bf 5136 df3e be1e bb3e
00000250: f4e6 223d 57a0 a0be 0fc3 1abe b65f efbd
00000260: 05f6 0f3e 259c d63e b273 d5bd bc6f 823f
00000270: 251b 0f3f e215 533d e215 e0be f35f 4ebf
00000280: 7bbb 3c3d 4146 00bc e6b6 7b3e ad57 063e
00000290: fbaa dcbd 7366 0b3f 8633 943e 504b b5be
000002a0: 7bdb bebe abf2 0d3e 1a40 d63e 0fae 8dbd
000002b0: 6f93 cabd 4850 423f 457e 5e3e 74ce 77be
000002c0: d4d0 17be 7e5d d4be a430 1a3e c02c e83e
000002d0: 23bf 0ebe dee3 e7bc 8427 4c3f d5ae ad3e
000002e0: ecd9 253e cbf1 8dbe cd94 c63e e9f8 313e
000002f0: 3a2d 98be 1a2d 0abf 8329 033d 6d99 2d3f

sequential_1/dense_4/MatMul f4 [32, 64]
0.5539392 -0.26855928 0.45649984 0.32700515 0.44203857 0.9755009 -0.38545936 0.914525
0.30377272 0.6750498 0.41756827 0.5515439 0.38681367 0.31017587 0.34737283 0.21389323
0.51262975 0.17823476 0.56704587 0.47278994 0.7994975 0.15260702 0.488055 0.7391269
-0.100908175 -0.4804691 -0.15172589 0.3335067 0.6357931 0.17386803 0.734091 -0.50785637
-0.092055894 0.13268942 0.04430863 0.008439129 -0.025147874 -0.10442278 0.5037371 -0.15746859
0.07946188 0.6309394 0.7356207 0.09141353 0.6746784 0.19888358 0.25780824 -0.29419896
0.2284207 -0.31970912 0.08271246 0.85919863 -0.36754984 1.0557897 0.27958637 -0.15579756
0.107801065 0.4925434 0.35459122 0.24991456 0.42085516 0.10733966 0.08939555 0.98579574
-0.23775724 -0.20140225 -0.16757007 0.18559884 -0.26224554 -0.21870597 0.12467571 -0.06545781
-0.15601367 -0.1321606 -0.04187905 0.20800287 -0.23899235 0.07662504 0.09657057 -0.0441769
0.04449796 -0.1736049 -0.12358869 -0.16250096 -0.021844603 -0.20106077 -0.19361818 0.16534801
-0.14638758 -0.010808736 0.10636705 -0.14579655 -0.13850005 -0.05261888 0.13617986 -0.18725425
-0.09718329 -0.19185165 0.22018719 0.13227788 -0.18651015 0.121327035 0.18231621 -0.23446076
0.20246063 -0.01604902 0.02338085 0.13540544 0.161637 -0.055945914 0.11920079 0.219321
-0.00882444 0.17270763 0.1736801 -0.068214744 -0.11922003 -0.2136028 0.009047945 -0.055268653
0.097825736 -0.100140356 0.14414555 0.11310849 0.1178269 -0.1080463 0.13371268 0.19723178
-0.6039506 1.0443015 -0.43688947 0.12534398 -0.7828146 -0.9467577 0.7095259 -0.53469145
0.08631314 0.0050906297 -0.5679616 -0.08844727 -0.14797333 0.3806322 -0.36453614 0.05021582
-0.42825988 -0.42232102 -0.5075437 -0.15231435 -0.7807018 0.5726197 0.06646585 -0.012459958
0.5688476 0.8541674 0.37251556 -0.31811956 -0.301458 0.1757703 -0.86657286 0.7493265
-0.10470483 0.0897321 0.17908879 0.47794965 0.51323533 0.75327915 -0.50902987 0.74160683
0.11484572 -0.2844432 -0.2759431 0.034731653 -0.6248199 0.34906915 -0.4862834 0.58150184
0.31541058 1.003508 0.28359404 -0.6734225 1.0512048 -1.0249711 0.44688588 0.6784168
0.13557215 -0.3672121 0.4202037 -0.15542354 -0.31511366 0.5234143 0.36825883 -0.8481712
-0.6424981 1.0105388 -0.122942515 0.1301656 -0.4146195 -0.5653335 1.0827129 -0.42034143
0.25432324 0.21348472 -0.50636095 -0.26345658 -0.25652662 0.32810345 -0.49871308 -0.18065707
-0.43338436 -0.3522147 -0.26514247 -0.43710035 -0.4641647 0.31982365 -0.3560937 -0.380842
0.49393016 1.0715958 0.27504548 -0.19405645 -0.2915924 0.2863802 -0.9678514 0.99434435
0.22700794 0.30589667 -0.036884926 0.673696 0.6102626 0.65579814 -0.2757816 0.62204033
-0.13352089 -0.10917014 -0.24681957 -0.34245455 -0.6617672 -0.011941432 -0.07370903 0.8011846
0.25938144 1.0636102 -0.13180827 -0.6737653 0.81574124 -0.8334209 0.32388765 0.65738446
-0.031820655 -0.13548857 0.13473058 0.09312854 0.022263786 0.7193651 0.3502528 -0.64347285
00000000: f6ce 0d3f 9a80 89be 59ba e93e 386d a73e
00000010: e152 e23e 6dba 793f ee5a c5be 4f1e 6a3f
00000020: 1988 9b3e 10d0 2c3f 82cb d53e fb31 0d3f
00000030: 710c c63e 5fcf 9e3e dada b13e d406 5b3e
00000040: b43b 033f 2c83 363e eb29 113f 8611 f23e
00000050: deab 4c3f 0445 1c3e 58e2 f93e 6c37 3d3f
00000060: f2a8 cebd 0c00 f6be 085e 1bbe 64c1 aa3e
00000070: 56c3 223f 760a 323e 63ed 3b3f e002 02bf
00000080: cd87 bcbd bcdf 073e f77c 353d 4644 0a3c
00000090: ea02 cebc 9cdb d5bd eaf4 003f 723f 21be
000000a0: e9bc a23d 3f85 213f a351 3c3f 0437 bb3d
000000b0: b9b7 2c3f 23a8 4b3e 71ff 833e 3fa1 96be
000000c0: 1ee7 693e eab0 a3be 2665 a93d 71f4 5b3f
000000d0: 7e2f bcbe 1e24 873f f225 8f3e 6589 1fbe
000000e0: cec6 dc3d a62e fc3e fb8c b53e 9ae9 7f3e
000000f0: 547a d73e e5d4 db3d 0415 b73d 1c5d 7c3f
00000100: a276 73be 643c 4ebe 7d97 2bbe 9f0d 3e3e
00000110: 0c45 86be 75f4 5fbe fb55 ff3d bf0e 86bd
00000120: 0cc2 1fbe 1c55 07be 5e89 2bbd b4fe 543e
00000130: 69ba 74be 97ed 9c3d cac6 c53d d6f2 34bd
00000140: 7e43 363d 7cc5 31be 111c fdbd a766 26be
00000150: 74f3 b2bc e0e2 4dbe d843 46be fd50 293e
00000160: a0e6 15be 2017 31bc f8d6 d93d b14b 15be
00000170: f5d2 0dbe e586 57bd bc72 0b3e 94bf 3fbe
00000180: 0808 c7bd c274 44be c078 613e da73 073e
00000190: 84fc 3ebe 4f7a f83d 1ab1 3a3e 7b16 70be
000001a0: d751 4f3e 3c79 83bc 3289 bf3c b9a7 0a3e
000001b0: 2b84 253e 8b27 65bd 8b1f f43d af95 603e
000001c0: 6294 10bc 45da 303e 32d9 313e 2cb4 8bbd
000001d0: a229 f4bd b1ba 5abe d53d 143c 6261 62bd
000001e0: dc58 c83d 6316 cdbd e49a 133e 6da5 e73d
000001f0: 3b4f f13d 6147 ddbd faeb 083e 21f7 493e
00000200: 829c 1abf acab 853f faaf dfbe 2c5a 003e
00000210: 8a66 48bf b65e 72bf 7da3 353f 8ae1 08bf
00000220: f2c4 b03d 4ccf a63b ee65 11bf d823 b5bd
00000230: 5286 17be 39e2 c23e 7ba4 babe 1baf 4d3d
00000240: e144 dbbe 763a d8be 62ee 01bf 4bf8 1bbe
00000250: 13dc 47bf 3497 123f 3f1f 883d da24 4cbc
00000260: ff9f 113f b7aa 5a3f 5cba be3e 91e0 a2be
00000270: b458 9abe 21fd 333e b8d7 5dbf ddd3 3f3f
00000280: 7c6f d6bd 77c5 b73d 0d63 373e d1b5 f43e
00000290: 6463 033f e7d6 403f c84f 02bf f2d9 3d3f
000002a0: 3c34 eb3d 8aa2 91be 6a48 8dbe c742 0e3d
000002b0: 32f4 1fbf 31b9 b23e 23fa f8be 4edd 143f
000002c0: 7f7d a13e f372 803f 3d33 913e 6b65 2cbf
000002d0: e18d 863f 4132 83bf 3ace e43e b9ac 2d3f
000002e0: 6dd3 0a3e 3903 bcbe f024 d73e 5927 1fbe
000002f0: 9456 a1be 7bfe 053f 6c8c bc3e bf21 59bf
00000300: c17a 24bf 5659 813f 49c9 fbbd 224a 053e
00000310: 0249 d4be b2b9 10bf 5696 8a3f fe36 d7be
00000320: a836 823e bd9b 5a3e dfa0 01bf c8e3 86be
00000330: 7557 83be 2dfd a73e 5257 ffbe 2bfe 38be
00000340: 8ee4 ddbe 7c55 b4be c1c0 87be 9ecb dfbe
00000350: ffa6 edbe edbf a33e ea51 b6be b9fd c2be
00000360: 6ae4 fc3e 0d2a 893f c3d2 8c3e bcb6 46be
00000370: 994b 95be 6da0 923e 1cc5 77bf 5a8d 7e3f
00000380: c574 683e 7d9e 9c3e a614 17bd 5777 2c3f
00000390: 2b3a 1c3f 63e2 273f 3f33 8dbe 093e 1f3f
000003a0: b3b9 08be 9894 dfbd 45be 7cbe 3456 afbe
000003b0: 9369 29bf ffa5 43bc c3f4 96bd 6f1a 4d3f
000003c0: a5cd 843e 6124 883f bff8 06be e27b 2cbf
000003d0: 6bd4 503f 125b 55bf 9ad4 a53e 594a 283f
000003e0: 6056 02bd 84bd 0abe d0f6 093e 2dba be3d
000003f0: 8b62 b63c 5028 383f 5654 b33e a3ba 24bf

sequential_1/dense_5/MatMul f4 [4, 32]
0.20890142 -0.16961202 -0.40632755 0.29524755 -2.5848658 -0.14922369 -0.17054796 0.51008254
-0.24194689 0.3951732 -1.151847 -1.0283505 0.26426366 -0.15263888 -1.2590585 0.18947919
0.72969854 0.23267795 0.66481304 0.009498276 0.13482198 0.29294696 -0.2708745 0.39239132
0.037747547 0.07406452 -1.3138132 0.17105228 0.41953957 -1.8008072 -3.9618096 -0.1686017
-1.1680211 0.31801143 0.5507186 0.688993 0.9359859 -0.01842944 -0.97699696 -1.8652387
0.71897566 -0.28103366 -4.247153 1.0693921 -2.0139437 -1.647024 1.4553827 -0.20957054
-1.4943432 -3.0253105 -2.0759559 0.5594971 0.11910807 -2.4548397 -0.27511695 -1.2168884
-5.7843122 -1.1760302 1.0957655 0.24432346 -1.2841027 0.15343484 1.9624858 -1.8624861
-0.30249402 -0.25831825 0.4102314 0.401678 -0.022899657 -0.007825215 -0.44304547 -0.49612394
0.20550644 -0.26719105 -3.258543 -0.36610663 0.028641228 -0.9073037 0.26698065 0.05277069
0.34334737 0.00805386 -1.3755891 0.2798369 0.06286162 -0.029089784 0.0139511535 0.50860167
-4.537205 -0.50568503 0.1746368 0.083915286 -0.3624384 -0.106691025 0.39172456 -0.70920724
0.73918205 -0.19049722 -3.0427263 -2.2686777 -3.1443803 0.35470784 -0.27575555 0.45523834
-2.7947428 0.42841336 2.3014288 0.07066949 0.16507009 0.17530088 0.3451983 -0.09288879
-0.31408578 0.616577 0.016861774 -1.8816234 0.03220833 0.51536953 -0.05089079 -0.5755421
0.7585643 0.5545575 -0.23152561 -1.5857888 0.23131783 1.9533498 -0.9054057 1.7402642
00000000: 41ea 553e c6ae 2dbe 2a0a d0be b02a 973e
00000010: 716e 25c0 18ce 18be 20a4 2ebe c594 023f
00000020: edc0 77be 2454 ca3e b96f 93bf fda0 83bf
00000030: 914d 873e 5e4d 1cbe d428 a1bf d506 423e
00000040: 86cd 3a3f 2143 6e3e 3031 2a3f a89e 1b3c
00000050: c60e 0a3e 25fd 953e 10b0 8abe 84e7 c83e
00000060: 2c9d 1a3d 24af 973d 082b a8bf 5428 2f3e
00000070: e4cd d63e da80 e6bf 4a8e 7dc0 eda5 2cbe
00000080: b781 95bf 65d2 a23e e5fb 0c3f d861 303f
00000090: c69c 6f3f 56f9 96bc 791c 7abf 24c0 eebf
000000a0: ca0e 383f a5e3 8fbe ade8 87c0 d7e1 883f
000000b0: 74e4 00c0 afd1 d2bf fb49 ba3f a999 56be
000000c0: a346 bfbf b09e 41c0 76dc 04c0 343b 0f3f
000000d0: efee f33d 181c 1dc0 21dc 8cbe 00c3 9bbf
000000e0: 1619 b9c0 2888 96bf 0b42 8c3f ee2f 7a3e
000000f0: 7a5d a4bf 061e 1d3e bc32 fb3f f265 eebf
00000100: 7fe0 9abe 4a42 84be da09 d23e bda8 cd3e
00000110: 1098 bbbc 5535 00bc dbd6 e2be f503 febe
00000120: 4870 523e 44cd 88be f88b 50c0 5472 bbbe
00000130: 02a1 ea3c 0e45 68bf b0b1 883e 1426 583d
00000140: 3acb af3e 56f4 033c 4e13 b0bf c846 8f3e
00000150: 98bd 803d b34d eebc 6193 643c b833 023f
00000160: c930 91c0 9374 01bf fdd3 323e c7db ab3d
00000170: 8791 b9be d380 dabd 1f90 c83e 9b8e 35bf
00000180: 093b 3d3f b411 43be 07bc 42c0 0432 11c0
00000190: 873d 49c0 449c b53e d52f 8dbe 0015 e93e
000001a0: 11dd 32c0 ff58 db3e 9c4a 1340 2abb 903d
000001b0: 2208 293e 1382 333e d5bd b03e 7a3c bebd
000001c0: dacf a0be fed7 1d3f b421 8a3c 09d9 f0bf
000001d0: e2ec 033d 42ef 033f dc72 50bd ba56 13bf
000001e0: 4531 423f 7bf7 0d3f 0d15 6dbe 21fb cabf
000001f0: 95de 6c3e 5e07 fa3f abc8 67bf fac0 de3f
